util/parametro.pt (torch, 27538 bytes, 12 tensors)

hidden_layers.0.weight f4 [50, 2]
0.37381312 -0.55614907 -0.4486199 -0.011093899 -0.29254258 0.23677784 -1.5838715 -1.7168576
0.51562476 0.5208387 -0.35439703 -0.06471362 -0.24086466 0.52141386 -0.6272911 0.23196344
-0.52216244 -0.43783003 0.24192892 0.16886318 0.43865415 0.47991395 0.6082977 -0.54310757
-0.31160405 -0.021908611 0.05935427 0.71089005 -0.17111865 0.44658068 0.4337857 -0.4435943
-0.56619734 -0.18912973 -0.60290164 -0.096293315 -0.13234688 0.2826343 0.23022427 0.64672434
-0.1946397 0.611628 -0.59376645 0.44750455 -0.48818663 0.20551395 0.9430973 -0.34014836
0.31590346 0.3566841 0.4593826 -0.15581267 0.08443889 -0.30216482 -1.5905153 1.9969193
-1.0325203 1.0082008 0.27454352 0.6533111 -0.23325036 -0.0711624 -0.35691288 -0.4414648
0.8300441 -0.8325554 -0.32619786 0.22144936 0.041090246 0.52399254 -0.28671175 -0.5697637
-0.16528633 -0.021735052 -0.07473981 0.20182917 -0.47089368 -0.04151164 0.3846577 -0.072640285
0.17741524 -0.18067233 0.2417973 0.109539285 -0.27570406 0.48015773 -0.20725626 -0.562206
-0.5231374 0.18981402 -0.52460283 0.2451875 -0.4838643 0.87653345 0.73172 -0.42241022
-0.051445678 0.43447664 -0.34086466 -0.09358379
00000000: 6f64 bf3e c95f 0ebf 82b1 e5be 2fc3 35bc
00000010: 24c8 95be e475 723e 4dbc cabf fdc1 dbbf
00000020: fcff 033f af55 053f 8773 b5be 9388 84bd
00000030: 3aa5 76be 617b 053f 2696 20bf d387 6d3e
00000040: 70ac 05bf 422b e0be 37bc 773e 78ea 2c3e
00000050: 4797 e03e 48b7 f53e 66b9 1b3f 1909 0bbf
00000060: 918a 9fbe b079 b3bc 771d 733d e4fc 353f
00000070: ba39 2fbe 39a6 e43e 2919 de3e cb1e e3be
00000080: 4ff2 10bf 39ab 41be c357 1abf 6e35 c5bd
00000090: f185 07be 71b5 903e e9bf 6b3e ba8f 253f
000000a0: a14f 47be a793 1c3f 1401 18bf 511f e53e
000000b0: 99f3 f9be 4072 523e d36e 713f ed27 aebe
000000c0: 19be a13e 4c9f b63e 3234 eb3e 5b8d 1fbe
000000d0: 4cee ac3d 59b5 9abe 0196 cbbf 0d9b ff3f
000000e0: a029 84bf b90c 813f f890 8c3e 653f 273f
000000f0: 2fd9 6ebe 98bd 91bd 49bd b6be ad07 e2be
00000100: c57d 543f 5a22 55bf 6803 a7be 9fc3 623e
00000110: 3f4e 283d 6024 063f e2cb 92be 09dc 11bf
00000120: d240 29be b50d b2bc 2f11 99bd 4eac 4e3e
00000130: fa18 f1be 1c08 2abd dbf1 c43e 6ec4 94bd
00000140: 57ac 353e 2b02 39be b699 773e 2256 e03d
00000150: 1529 8dbe 3cd7 f53e fc3a 54be bbec 0fbf
00000160: 55ec 05bf 9b5e 423e 5f4c 06bf 6f12 7b3e
00000170: 10bd f7be 7f64 603f 0052 3b3f 2746 d8be
00000180: b4b8 52bd b973 de3e d085 aebe dca8 bfbd

hidden_layers.0.bias f4 [50]
0.156431 0.46518448 0.48658183 0.26522422 -0.8179538 0.18964313 0.112902634 -0.16306485
0.52526915 -0.18344128 -0.50693154 0.15873274 0.10816904 -0.42898124 0.038881365 0.4770721
0.21901485 0.370896 0.008812521 -0.5738301 0.10914598 -0.09696212 0.10702899 0.01216711
-0.4476617 0.34918788 0.05879689 0.5339986 -0.99146956 -0.6404649 -0.10454922 0.52187806
0.7280268 0.02010895 -0.36047664 0.5350785 0.31401893 -0.05628447 -0.09648355 -0.110426664
0.1946041 -0.12741444 -0.16872291 0.41406548 -0.4747919 -0.32748905 -0.51792014 0.33687773
-0.07438591 -0.10467216
00000000: 732f 203e a92c ee3e 4121 f93e 78cb 873e
00000010: 6c65 51bf cf31 423e 7f39 e73d 79fa 26be
00000020: 0a78 063f 08d8 3bbe 44c6 01bf d68a 223e
00000030: bb87 dd3d 6ea3 dbbe 1142 1f3d cb42 f43e
00000040: 6e45 603e 15e6 bd3e 6462 103c 88e6 12bf
00000050: ed87 df3d 1394 c6bd 0432 db3d 8f58 473c
00000060: ea33 e5be c1c8 b23e 02d5 703d 22b4 083f
00000070: f3d0 7dbf 82f5 23bf e71d d6bd cd99 053f
00000080: f75f 3a3f 86bb a43c 6590 b8be e8fa 083f
00000090: 17c7 a03e 8b8a 66bd 2b99 c5bd 6027 e2bd
000000a0: 4c46 473e ee78 02be b3c5 2cbe 6400 d43e
000000b0: ed17 f3be a5ac a7be 6a96 04bf 3d7b ac3e
000000c0: a457 98bd 5c5e d6bd

hidden_layers.1.weight f4 [50, 50]
-0.065748975 -0.15752794 -0.06947536 -0.17873459 0.048080247 -0.0636827 -0.094542205 -0.07227331
-0.07490556 -0.10255713 -0.06745957 0.20165908 0.07304003 -0.048724465 0.11265767 0.08932738
-0.012393367 -0.116148576 -0.14255461 -0.16363712 -0.045613155 0.080711745 -0.056106105 -0.05754091
-0.09486758 0.011009988 0.1378128 0.08820851 -0.11856633 0.06445974 -0.051154252 0.008282193
0.054173756 -0.009407756 -0.0052076625 -0.018992007 -0.12977089 -0.035811733 -0.048673615 -0.0796109
0.06961195 -0.10947803 0.099474356 -0.09931092 0.11885454 -0.021868268 0.10510305 -0.025305033
-0.06914779 0.015407545 -0.02335345 0.1261436 -0.07169622 0.15888353 -0.13232069 0.05208828
0.054259427 -0.018438911 -0.08326791 0.060162585 0.04607509 0.047970876 0.070889324 0.035795648
-0.05374682 -0.11182102 0.036467444 -0.0008880847 0.102843255 0.0065735495 0.13723993 0.01744798
-0.033019282 -0.04573432 -0.07717166 0.01976157 -0.13635577 0.09427043 -0.09077473 -0.015087133
-0.09949712 -0.06164094 0.051309336 -0.09007606 -0.04749521 -0.05586537 -0.039767567 -0.08315388
-0.018310891 -0.05059945 0.0409363 0.07953201 0.018990496 -0.07930484 0.1164628 0.12652785
0.049531728 -0.04779592 0.1241893 -0.09421378 0.045734514 -0.022474797 -0.10211074 -0.13941398
0.063565046 0.09610363 0.023072382 0.059135545 0.07046401 0.017360516 0.01269256 0.017708428
-0.11056492 0.038722783 0.021795625 0.122343875 -0.007763705 -0.072028734 -0.09026387 -0.057453956
0.04116512 0.08033239 -0.02488267 -0.1228359 -0.15726642 0.07093056 -0.09418798 -0.06404685
0.024608675 -0.08984156 0.018963711 0.12515467 -0.10274766 -0.040671177 -0.13186736 0.07007138
-0.09026214 -0.10229341 -0.04160915 0.07818679 0.09943534 0.13174745 -0.07021608 -0.088139124
-0.11895443 0.07022012 0.0059199347 0.11528232 -0.07655801 -0.061477844 -0.032365553 -0.11621404
-0.029473737 1.1172953 1.0901941 -0.8784559 0.13138472 -0.10777753 -0.279457 0.7985936
0.22702529 0.04656596 -0.5064942 0.46962658 0.08822697 -0.012610439 -0.11201763 -0.37574017
-0.019132873 0.9750028 0.08648081 -0.14737743 -0.028912807 0.5452543 0.31015217 0.0743272
-0.115833215 0.64927447 -0.73722166 1.0476165 -0.04568015 -1.0735476 0.3595751 -0.1496366
0.22161733 -0.4810112 -0.077150755 -0.015944853 -0.048949316 0.3808271 0.0049517225 0.15179758
0.058452602 -0.3116823 -0.0018849791 -0.08964163 -0.037372835 0.20257492 0.08571834 0.015185611
0.08117827 -0.017158642 0.13113484 0.09212986 0.042858675 -0.00834419 -0.08245245 -0.056919552
0.08371389 0.020450292 0.007653842 0.03613473 0.15333769 0.0059714275 -0.115386546 -0.0393228
0.084357664 -0.07891309 -0.0460534 0.07350957 0.08338554 0.03550217 0.028349582 -0.058445513
0.10782935 -0.0855228 -0.012978811 0.1603538 -0.12056435 0.020304509 -0.12163795 -0.0906541
-0.13086313 -0.020254847 0.072020695 -0.060203217 0.008228245 -0.07834288 -0.021118844 -0.028866395
-0.08020143 0.014174819 0.06205032 0.04067041 -0.028660037 -0.078726016 0.017036693 -0.08361289
0.081577726 -0.083264075 -0.09380227 0.06567333 -0.06357826 0.1730903 0.045775663 -0.100813225
00000000: 66a7 86bd 014f 21be 1949 8ebd 3306 37be
00000010: cbef 443d 136c 82bd 589f c1bd 0704 94bd
00000020: 1668 99bd 7909 d2bd 3e28 8abd b87f 4e3e
00000030: 0396 953d 4e93 47bd 11b9 e63d 46f1 b63d
00000040: 8c0d 4bbc 4edf edbd d6f9 11be 7d90 27be
00000050: dcd4 3abd 334c a53d 84cf 65bd 04b0 6bbd
00000060: ef49 c2bd 3d63 343c cc1e 0d3e aaa6 b43d
00000070: e7d2 f2bd 7803 843d 1f87 51bd 09b2 073c
00000080: 4de5 5d3d fd22 1abc 0aa5 aabb 2095 9bbc
00000090: a9e2 04be 53af 12bd fc5d 47bd 0a0b a3bd
000000a0: b690 8e3d 0436 e0bd 36b9 cb3d 8663 cbbd
000000b0: 026a f33d 1525 b3bc 4540 d73d 804c cfbc
000000c0: 5b9d 8dbd ed6f 7c3c bc4f bfbc ca2b 013e
000000d0: 78d5 92bd 5db2 223e 137f 07be 855a 553d
000000e0: 223f 5e3d 330d 97bc 5e88 aabd 0b6d 763d
000000f0: 3cb9 3c3d 1c7d 443d 6c2e 913d 759e 123d
00000100: a025 5cbd 6b02 e5bd e35e 153d 5bce 68ba
00000110: 7c9f d23d ee66 d73b a088 0c3e 11ef 8e3c
00000120: 3a3f 07bd e953 3bbd 2d0c 9ebd 04e3 a13c
00000130: d9a0 0bbe db10 c13d 1ae8 b9bd 0630 77bc
00000140: 25c5 cbbd 367b 7cbd bd29 523d cc79 b8bd
00000150: 568a 42bd 16d3 64bd 51e3 22bd 954c aabd
00000160: b900 96bc 5e41 4fbd d2ac 273d aee1 a23d
00000170: f591 9b3c 936a a2bd 0c84 ee3d 8490 013e
00000180: c8e1 4a3d a8c5 43bd f656 fe3d 27f3 c0bd
00000190: 1d54 3b3d 111d b8bc 701f d1bd 8ac2 0ebe
000001a0: 642e 823d fbd1 c43d 4b02 bd3c 1d38 723d
000001b0: 6f4f 903d a437 8e3c 75f4 4f3c 4411 913c
000001c0: dc6f e2bd c89b 1e3d bd8c b23c 6d8f fa3d
000001d0: ae66 febb cd83 93bd 44dc b8bd d754 6bbd
000001e0: c29c 283d 4f85 a43d bed6 cbbc 6391 fbbd
000001f0: 730a 21be 0b44 913d a1e5 c0bd ff2a 83bd
00000200: 2298 c93c dafe b7bd c959 9b3c 8c28 003e
00000210: 5d6d d2bd d296 26bd 3d08 07be 9581 8f3d
00000220: 5bdb b8bd 357f d1bd 5b6e 2abd 6520 a03d
00000230: c1a4 cb3d cee8 063e 73cd 8fbd 4982 b4bd
00000240: 619e f3bd 91cf 8f3d 03fc c13b 2319 ec3d
00000250: 72ca 9cbd 31d0 7bbd be91 04bd a001 eebd
00000260: e872 f1bc 8803 8f3f 7b8b 8b3f 7ce2 60bf
00000270: b789 063e 77ba dcbd fd14 8fbe a170 4c3f
00000280: 5179 683e f3bb 3e3d 9ba9 01bf e572 f03e
00000290: 57b0 b43d 049c 4ebc 8069 e5bd 0461 c0be
000002a0: 8bbc 9cbc c999 793f da1c b13d 1cea 16be
000002b0: 8dda ecbc c995 0b3f 44cc 9e3e dc38 983d
000002c0: f739 edbd da36 263f 8fba 3cbf 4c18 863f
000002d0: 1c1b 3bbd 026a 89bf 3a1a b83e 563a 19be
000002e0: a7ef 623e 1a47 f6be 3701 9ebd c89e 82bc
000002f0: 147f 48bd c5fb c23e 0f42 a23b d370 1b3e
00000300: ff6b 6f3d d394 9fbe 6711 f7ba 0896 b7bd
00000310: 4214 19bd cd6f 4f3e 198d af3d 12cd 783c
00000320: cb40 a63d 4890 8cbc 3648 063e 94ae bc3d
00000330: 948c 2f3d 12b6 08bc d5dc a8bd 7a24 69bd
00000340: 3072 ab3d 5f87 a73c 15cd fa3b 0302 143d
00000350: 8e04 1d3e f7ab c33b c84f ecbd f210 21bd
00000360: b6c3 ac3d 309d a1bd 7da2 3cbd 2f8c 963d
00000370: 0ac6 aa3d b96a 113d 623d e83c 9064 6fbd
00000380: a2d5 dc3d 9426 afbd 14a5 54bc c933 243e
00000390: 71ea f6bd a455 a63c 511d f9bd dba8 b9bd
000003a0: fc00 06be 7eed a5bc 967f 933d a697 76bd
000003b0: c3cf 063c 3b72 a0bd 6d01 adbc 3879 ecbc
000003c0: a640 a4bd 803d 683c 7a28 7e3d 0496 263d
000003d0: 74c8 eabc 1b3b a1bd 8990 8b3c 3c3d abbd
000003e0: 3912 a73d 5b86 aabd 681b c0bd bd7f 863d
000003f0: 5235 82bd 953e 313e 437f 3b3d 2a77 cebd

hidden_layers.1.bias f4 [50]
-0.004878844 0.049966518 -0.10549772 -0.08215074 -0.09103152 0.06330039 0.09800924 0.060201563
0.13465908 0.0551811 0.020964244 -0.072547115 -0.10179075 0.071128905 -0.08194631 0.12563595
-0.0012360218 -0.14413306 0.12964489 -0.08475796 -0.010455956 -0.123201124 0.15102775 -0.06605778
-0.07091823 -0.019634737 -0.08176668 -0.14188817 -0.08383436 -0.1117164 -0.09721825 0.11752503
-0.037825253 0.14633754 0.035036728 -0.04260641 0.023108752 0.12879826 0.020978674 -0.124175824
-0.100858524 0.14222606 -0.047013268 -0.020926695 -0.04207473 0.047242466 0.101347804 0.08392086
-0.05736824 0.1203415
00000000: b6de 9fbb b1a9 4c3d 300f d8bd a63e a8bd
00000010: bc6e babd a3a3 813d 12b9 c83d ea95 763d
00000020: 12e4 093e 9405 623d 35bd ab3c 9593 94bd
00000030: ab77 d0bd 08ac 913d 78d3 a7bd b6a6 003e
00000040: 0202 a2ba 9e97 13be a1c1 043e 9595 adbd
00000050: 754f 2bbc df50 fcbd 05a7 1a3e 4d49 87bd
00000060: 943d 91bd 07d9 a0bc 4a75 a7bd 224b 11be
00000070: 59b1 abbd 91cb e4bd 5d1a c7bd f7b0 f03d
00000080: a7ee 1abd 82d9 153e ac82 0f3d 0f84 2ebd
00000090: 914e bd3c b1e3 033e 78db ab3c e54f febd
000000a0: ea8e cebd b5a3 113e fc90 40bd 766e abbc
000000b0: 8d56 2cbd 5181 413d 708f cf3d b3de ab3d
000000c0: f6fa 6abd 9b75 f63d

output_layer.weight f4 [4, 50]
0.013999419 0.14280769 -0.024669029 -0.42677206 0.005510898 0.019521672 0.042741004 -0.03222985
0.010774786 -0.0077810492 0.02147198 0.033250052 -0.10907619 0.17162877 -0.068919145 0.06336477
-0.03151691 -0.1102093 -0.061390456 -0.09938826 0.074348435 -0.022271836 0.08241707 0.021382086
0.07096414 -0.01358111 -0.027745139 -0.06489078 -6.919529e-05 -0.097102135 0.03161177 0.008279287
-0.09269931 0.10336294 0.0012531412 0.08190093 0.0045950618 -0.027508331 0.055198725 -0.06307232
0.08790168 -0.0029818525 0.027637308 0.01608515 -0.03902097 -0.04844753 -0.0013826122 -0.04358199
-0.104197614 0.11544171 -0.077661775 0.01923095 0.016316876 0.00022959207 0.08309602 0.026984937
0.025357263 0.060647096 0.0059452695 0.060238574 -0.027628344 -0.09647454 -0.048135586 -0.08512547
-0.014529722 0.10487504 -0.08027113 0.024632478 7.938561e-05 0.100006424 -0.08181091 0.04426108
0.035005927 0.11348095 0.041222874 -0.0121477945 0.0119748395 -0.0864758 -0.05714038 0.09944913
-0.011637781 0.06476969 0.0140859 0.030111492 0.02139677 0.09091268 -0.002782343 0.052936267
0.0025135614 0.03980309 0.067173466 0.04784149 -0.135472 0.057256352 0.08703805 -0.0028608066
-0.0745692 -0.03618554 0.07856174 0.0032184198 -0.071873724 0.04904907 -0.030423822 -0.0004070668
0.103621975 -0.031541567 -0.023542821 0.022055516 0.024612254 0.081517346 -0.006042676 -0.1325503
-0.08653582 -0.050658435 -0.013748859 0.12475393 -0.073052295 -0.014539975 -0.00036898468 0.06614488
-0.037137564 0.059480336 0.044458516 0.12090421 0.036730178 -0.012549059 0.014667157 -0.10558858
-0.06871034 0.024632283 -0.0027388914 0.08810007 0.07304143 0.006151854 0.013991746 0.14537458
0.020246664 0.01002276 0.10409538 -0.0160374 0.0683966 0.043214582 -0.093174145 0.090817034
0.04187297 0.012903066 -0.038076635 -0.06492351 -0.08449884 0.0048619555 0.006815105 0.10706448
0.018123291 0.4269853 -0.023681192 -0.003846759 -0.031154435 -0.038179513 0.0090512335 0.01070509
0.011854009 0.030044336 -0.050110463 0.1635025 -0.0831404 0.03860375 0.017735373 0.002710267
0.06289167 -0.10139244 0.064943396 -0.05169439 0.09559106 0.0498372 0.051244978 0.056570567
-0.032359403 -0.06862326 0.00405479 -0.08044517 0.033009022 -0.048974648 0.09916714 0.12641604
0.006966929 0.11086578 0.04068702 -0.02743458 0.096741766 -0.047910843 0.05532906 0.017164571
0.0665853 0.015380386 -0.008551389 -0.064391494 -0.03860208 -0.059438244 -0.06235502 -0.11310009
00000000: d25d 653c 2e3c 123e b416 cabc de81 dabe
00000010: c394 b43b eaeb 9f3c 3111 2f3d 7203 04bd
00000020: ba88 303c 2cf8 febb 01e6 af3c 3531 083d
00000030: 5663 dfbd 74bf 2f3e 7b25 8dbd 63c5 813d
00000040: e017 01bd 6ab5 e1bd 8f74 7bbd 128c cbbd
00000050: fe43 983d 6d73 b6bc 48ca a83d 7c29 af3c
00000060: a655 913d 4e83 5ebc c649 e3bc 75e5 84bd
00000070: f01c 91b8 7cdd c6bd 587b 013d d9a5 073c
00000080: 23d9 bdbd f3af d33d 7140 a43a adbb a73d
00000090: 2c92 963b 2759 e1bc 0f18 623d 0f2c 81bd
000000a0: cc05 b43d 2f6b 43bb a367 e23c 01c5 833c
000000b0: 74d4 1fbd eb70 46bd c438 b5ba 0783 32bd
000000c0: 8f65 d5bd b46c ec3d 230d 9fbd 3a8a 9d3c
000000d0: f8aa 853c a7be 7039 3f2e aa3d 840f dd3c
000000e0: 09ba cf3c 1769 783d 89d0 c23b b9bc 763d
000000f0: d654 e2bc 7294 c5bd d229 45bd 4356 aebd
00000100: 120e 6ebc bac8 d63d 3165 a4bd 0dca c93c
00000110: d37b a638 2bd0 cc3d 7a8c a7bd 1b4b 353d
00000120: 6062 0f3d b368 e83d 51d9 283d 8b07 47bc
00000130: 1e32 443c 391a b1bd 080c 6abd fcab cb3d
00000140: 64ac 3ebc f9a5 843d 8cc8 663c 60ac f63c
00000150: 4748 af3c 6d30 ba3d f857 36bb b3d3 583d
00000160: 90ba 243b 9108 233d 3e92 893d 70f5 433d
00000170: 2cb9 0abe a385 6a3d 0141 b23d 5f7c 3bbb
00000180: bdb7 98bd 4a37 14bd fae4 a03d 20ec 523b
00000190: 8832 93bd ade7 483d 613b f9bc 956b d5b9
000001a0: c237 d43d bb31 01bd e0dc c0bc c5ad b43c
000001b0: a39f c93c 91f2 a63d a401 c6bb 44bb 07be
000001c0: b139 b1bd 387f 4fbd e542 61bc fd7e ff3d
000001d0: 719c 95bd 1339 6ebc 4974 c1b9 f876 873d
000001e0: 8f1d 18bd a7a1 733d 221a 363d a09c f73d
000001f0: 6272 163d 929a 4dbc 844e 703c d33e d8bd
00000200: 02b8 8cbd a4c9 c93c f97e 33bb cf6d b43d
00000210: bf96 953d 7e95 c93b a33d 653c 13dd 143e
00000220: 55dc a53c 8136 243c f52f d53d de60 83bc
00000230: 8413 8c3d c601 313d 16d2 bebd 48fe b93d
00000240: fe82 2b3d 6267 533c 3ff6 1bbd 9ef6 84bd
00000250: ba0d adbd 0a51 9f3b 3f51 df3b 9f44 db3d
00000260: 4c77 943c d19d da3e 0fff c1bc e819 7cbb
00000270: 9637 ffbc 1f62 1cbd a04b 143c 6764 2f3c
00000280: 5137 423c 8a1f f63c a140 4dbd 336d 273e
00000290: 8445 aabd f71e 1e3d c649 913c bc9e 313b
000002a0: 59cd 803d d7a6 cfbd 0b01 853d 7fbd 53bd
000002b0: 3fc5 c33d 1822 4c3d 41e6 513d 8ab6 673d
000002c0: 4b8b 04bd 5a8a 8cbd 0bde 843b 70c0 a4bd
000002d0: 7834 073d a499 48bd 2418 cb3d 3573 013e
000002e0: d64a e43b 990d e33d 6fa7 263d 7cbe e0bc
000002f0: 8c20 c63d 293e 44bd b9a0 623d b79c 8c3c
00000300: e05d 883d 04fe 7b3c 201b 0cbc b0df 83bd
00000310: 371d 1ebd 8475 73bd fa67 7fbd 05a1 e7bd

output_layer.bias f4 [4]
0.14550216 0.04895661 -0.078379564 0.15556137
00000000: 85fe 143e ba86 483d 7785 a0bd 7b4b 1f3e

hidden_layers.0.weight f4 [50, 2]
-0.3368709 -0.2022296 0.045749795 0.06529778 -0.07913768 0.5036322 -0.4315144 -0.19763017
-0.19704995 -0.46543318 -0.17299391 -0.26949528 -0.6100678 -0.007027194 -0.35448295 0.001943109
-0.24857362 -0.0863049 0.68608636 -0.61636233 0.22085921 0.46166238 -0.041800726 -0.39933154
0.23053616 0.33792716 0.36833346 0.23626152 0.7995243 -0.3056036 0.5725457 -0.16766801
0.24418558 0.34372 -1.7192305 0.26886794 0.8689229 -0.1330424 0.8166818 -0.22273004
0.06282099 -0.51701427 0.75606763 -0.4554432 -0.11745428 0.8124631 -0.21100052 -0.34220913
0.32102042 -0.21365248 0.15613715 0.18492763 0.13391027 -0.064020045 0.6297615 0.08149107
-0.23201562 0.23073208 -0.050854515 0.46844795 0.6358293 -0.105043545 -0.30924788 0.55751705
-0.5942574 0.27940038 -0.64963984 0.31826305 -0.6076676 0.35113335 -0.38261777 -0.0015745653
-0.7495419 0.21712509 3.138941 0.5474064 -0.16956055 0.5500513 0.016183544 -0.7017814
-0.18944822 -0.19335932 0.11384443 -0.48136887 -0.23244216 -0.40690452 -0.5807241 -0.25007713
0.428493 -0.13941135 0.49783137 0.08833841 0.25731826 -0.26131147 0.10323434 0.3736205
0.45719883 0.09019906 -0.41445583 -0.11253753
00000000: 587a acbe 4715 4fbe 2364 3b3d d8ba 853d
00000010: f012 a2bd 0aee 003f 75ef dcbe 905f 4abe
00000020: 76c7 49be 424d eebe 5125 31be 49fb 89be
00000030: 672d 1cbf 6044 e6bb ca7e b5be ebaf fe3a
00000040: 158a 7ebe a0c0 b0bd 5ba3 2f3f ecc9 1dbf
00000050: eb28 623e 035f ec3e 3d37 2bbd 2f75 ccbe
00000060: ac11 6c3e ca04 ad3e 3496 bc3e 8aee 713e
00000070: a0ad 4c3f 1378 9cbe 5b92 123f 2ab1 2bbe
00000080: c90b 7a3e 11fc af3e bf0f dcbf 0fa9 893e
00000090: bb71 5e3f 443c 08be 0f12 513f 5813 64be
000000a0: 4ba8 803d 0c5b 04bf a68d 413f da2f e9be
000000b0: df8b f0bd 95fd 4f3f 8510 58be 0936 afbe
000000c0: ca5c a43e b7c7 5abe 6be2 1f3e ab5d 3d3e
000000d0: c61f 093e f11c 83bd 0d38 213f cae4 a63d
000000e0: 8195 6dbe 0845 6c3e d34c 50bd 69d8 ef3e
000000f0: b6c5 223f 1221 d7bd bd55 9ebe 70b9 0e3f
00000100: 4121 18bf 910d 8f3e cc4e 26bf 60f3 a23e
00000110: 1b90 1bbf c0c7 b33e 7ae6 c3be a561 ceba
00000120: fae1 3fbf 0a56 5e3e 69e4 4840 d322 0c3f
00000130: 48a1 2dbe 29d0 0c3f 5a93 843c f2a7 33bf
00000140: b7fe 41be fcff 45be 4527 e93d fb75 f6be
00000150: 5105 6ebe ca55 d0be 56aa 14bf 1c0a 80be
00000160: 6f63 db3e d9c1 0ebe c1e3 fe3e c5ea b43d
00000170: 38bf 833e 9eca 85be 876c d33d 304b bf3e
00000180: f715 ea3e 49ba b83d 8e33 d4be 147a e6bd

hidden_layers.0.bias f4 [50]
0.13141447 -0.054732904 -0.48709527 0.43365353 0.60888606 0.38943705 0.28467122 0.17493297
0.22264491 0.43955377 -0.5936263 0.4397577 0.11535577 -0.48548344 -0.046182975 -0.2148407
0.25598523 -0.48006248 -0.29643834 0.40597323 0.30463094 0.1707455 -0.709894 0.4497807
-0.062970065 -0.4140038 0.1121957 -0.4728798 -0.3318169 -0.50585645 -0.14943315 -0.38841084
-0.03558366 -0.09149512 0.29447678 -0.3600466 0.014357212 0.7591977 -0.5177265 0.704844
0.2704003 0.44644067 0.5610877 0.6900743 0.099737905 -0.49139437 0.14117618 -0.45702085
-0.23671916 0.27898526
00000000: 8491 063e 9c2f 60bd 8d64 f9be d607 de3e
00000010: f5df 1b3f 4b64 c73e 6dc0 913e a121 333e
00000020: 07fd 633e 310d e13e e5f7 17bf ec27 e13e
00000030: a53f ec3d 4991 f8be 5c2a 3dbd 33ff 5bbe
00000040: 7f10 833e c0ca f5be c4c6 97be b9db cf3e
00000050: 96f8 9b3e e9d7 2e3e 9dbb 35bf a849 e63e
00000060: 73f6 80bd 4ef8 d3be dcc6 e53d 4d1d f2be
00000070: e8e3 a9be cf7f 01bf 0105 19be c9dd c6be
00000080: 2cc0 11bd cb61 bbbd a9c5 963e 0758 b8be
00000090: 833a 6b3c c85a 423f b989 04bf a870 343f
000000a0: e871 8a3e df93 e43e 72a3 0f3f b6a8 303f
000000b0: 6343 cc3d 0b98 fbbe 7d90 103e a3fe e9be
000000c0: 8266 72be 28d7 8e3e

hidden_layers.1.weight f4 [50, 50]
0.012811887 0.051692046 -0.10464488 -0.08305477 0.011760574 -0.10153064 -0.009118511 -0.03348603
-0.041196205 -0.06704714 0.0957081 -0.035588797 -0.118304096 -0.13331433 -0.06621865 -0.061067406
-0.0022938882 -0.031710196 -0.12151536 -0.109180376 -0.11686188 0.09525675 -0.1415911 -0.08155882
0.025066676 -0.09277658 -0.13288565 0.14187147 0.1063284 0.11253078 0.1341665 0.07465176
0.103899635 0.072215855 -0.12804775 0.016017567 -0.1598273 0.047824815 0.016462827 -0.016860535
-0.04546887 -0.054289564 0.055014104 0.060508985 0.017832465 0.00888141 0.14107126 -0.12510517
-0.036285948 -0.015440051 -0.0162723 0.10334694 0.011568138 0.04276965 -0.07995376 -0.029979846
-0.006285791 0.0136143165 0.12069565 -0.007331005 0.049720235 0.11500933 -0.07474589 -0.051451758
0.14933617 -0.08321086 -0.060610652 -0.1597773 0.12109909 -0.08773625 -0.07543004 -0.07213064
0.10372017 0.034943707 0.08992664 0.054556742 -0.06462486 -0.10213721 0.088091336 -0.004577594
0.15638769 -0.014108631 0.06187078 -0.05303626 0.036706764 -0.043010682 -0.12653495 0.072097406
-0.012324149 -0.06311211 0.116698734 -0.10625437 -0.08848399 0.025040599 -0.08459913 -0.019911552
-0.080876574 0.0063599898 0.0007626524 -0.19515112 -0.1207455 -0.08304968 0.029145673 0.090608135
0.029400775 0.101910904 -0.16964649 -0.08381926 0.031691715 -0.06468923 0.11601668 -0.11470519
0.10758814 0.1275546 0.066462524 0.10811946 0.0016853119 -0.19443294 -0.11318592 0.0510492
-0.122539036 0.04827878 0.09811021 -0.029138293 -0.14655186 -0.10515892 0.11432666 0.039744005
0.018796705 0.10571673 0.09034674 0.043815557 -0.15509292 0.06734441 -0.10413277 -0.09255874
0.093798935 0.19765043 -0.14145409 -0.076329544 -0.12793556 0.096382044 -0.19085786 0.08490373
-0.097786546 0.10971673 0.08519031 0.11762312 -0.037896186 -0.18706188 0.17050011 -0.13497198
-0.050977997 0.1232554 0.040741388 -0.0032921995 -0.0065051345 0.04637498 0.107400656 0.085954085
0.045574754 0.0155614205 0.14249669 0.093403965 0.12816346 0.09068764 -0.005466547 0.136569
0.052129626 -0.073968925 -0.05407642 -0.013539928 0.010467154 0.12967014 -0.018048229 -0.07794031
-0.10463598 0.1223298 -0.0063236654 0.06965181 0.054513298 -0.067176044 -0.0719226 -0.048641942
-0.123358816 0.047886644 -0.09025907 -0.057776555 -0.09603487 0.16505454 -0.05337123 -0.036036596
0.061943088 -0.044548407 -0.08285292 0.08772712 0.037743114 -0.032087073 -0.121058635 -0.13249688
0.09345754 0.037368808 -0.12971318 0.2894987 0.23189458 0.031726852 0.18923007 0.17963994
-0.038717844 0.029714461 -0.06599429 0.07306378 0.13023089 -0.13181573 -0.17156793 -0.15313898
0.22536172 0.0671046 0.033326663 -0.024875488 0.19456272 0.009313714 -0.16450122 0.06938325
0.042975444 0.039735727 0.014369799 -0.16993892 0.02267771 -0.061843656 -0.026560234 -0.053022414
0.1246993 0.021645078 -0.032740764 -0.022715684 0.011384667 -0.2960722 -0.16296102 0.08868491
-0.018356295 0.12625834 0.24798352 0.24365471 0.09496917 0.010690297 -0.036544364 -0.08184439
0.056694232 0.04635705 -0.0583649 -0.12408284 0.12399073 0.0396115 -0.12502627 0.06582857
00000000: f3e8 513c 0abb 533d 0e50 d6bd 9f18 aabd
00000010: 6caf 403c 4cef cfbd cf65 15bc a628 09bd
00000020: 5abd 28bd 0350 89bd 9c02 c43d 8fc5 11bd
00000030: 6b49 f2bd 8d83 08be a59d 87bd d121 7abd
00000040: 0f55 16bb 8de2 01bd 0cdd f8bd f699 dfbd
00000050: 4855 efbd f915 c33d 42fd 10be 5008 a7bd
00000060: a158 cd3c a601 bebd 2d13 08be c146 113e
00000070: b4c2 d93d 8a76 e63d f162 093e 06e3 983d
00000080: 55c9 d43d e8e5 933d f31e 03be 4637 833c
00000090: c5a9 23be f4e3 433d 0ddd 863c 1b1f 8abc
000000a0: 913d 3abd bc5e 5ebd 7856 613d 45d8 773d
000000b0: 6415 923c 5583 113c fc74 103e 921b 00be
000000c0: 93a0 14bd 45f8 7cbc 7d4d 85bc 8fa7 d33d
000000d0: 4a88 3d3c 3b2f 2f3d ccbe a3bd 4b98 f5bc
000000e0: 09f9 cdbb 950e 5f3c 482f f73d ed38 f0bb
000000f0: 72a7 4b3d 038a eb3d 6014 99bd 14bf 52bd
00000100: 95eb 183e 756a aabd e042 78bd a99c 23be
00000110: cd02 f83d 10af b3bd 117b 9abd 3bb9 93bd
00000120: 3e6b d43d 2221 0f3d 752b b83d e476 5f3d
00000130: 0a5a 84bd 502d d1bd 3b69 b43d a4ff 95bb
00000140: 1824 203e e327 67bc 376c 7d3d 8d3c 59bd
00000150: d559 163d f82b 30bd 6192 01be cea7 933d
00000160: 3aeb 49bc ec40 81bd bfff ee3d e49b d9bd
00000170: 1837 b5bd f121 cd3c 4f42 adbd 8d1d a3bc
00000180: 9ea2 a5bd 7667 d03b bcec 473a b2d5 47be
00000190: 6b49 f7bd f315 aabd e8c2 ee3c c290 b93d
000001a0: e5d9 f03c aab6 d03d cfb7 2dbe 6fa9 abbd
000001b0: 2ccf 013d c97b 84bd 279a ed3d 8eea eabd
000001c0: 2c57 dc3d ac9d 023e 811d 883d bc6d dd3d
000001d0: afe5 dc3a 6e19 47be 05ce e7bd f718 513d
000001e0: bff5 fabd f8bf 453d 01ee c83d 6eb3 eebc
000001f0: b111 16be 8f5d d7bd 1924 ea3d 9cca 223d
00000200: 8cfb 993c 0382 d83d b607 b93d f177 333d
00000210: aed0 1ebe deeb 893d 9043 d5bd 708f bdbd
00000220: a819 c03d e064 4a3e 57d9 10be aa52 9cbd
00000230: 8a01 03be f363 c53d 3e70 43be 02e2 ad3d
00000240: 5044 c8bd 2ab3 e03d 4278 ae3d 64e4 f03d
00000250: 0839 1bbd 268d 3fbe 9597 2e3e 1836 0abe
00000260: 4ece 50bd 546d fc3d 71e0 263d f1c1 57bb
00000270: 0629 d5bb b1f3 3d3d e0f4 db3d b208 b03d
00000280: 98ac 3a3d 54f5 7e3c a7ea 113e 944a bf3d
00000290: 483d 033e 71ba b93d b820 b3bb bed8 0b3e
000002a0: e085 553d 057d 97bd 3c7f 5dbd 93d6 5dbc
000002b0: 6d7e 2b3c 40c8 043e e1d9 93bc 2b9f 9fbd
000002c0: 644b d6bd 0c88 fa3d c036 cfbb 9ca5 8e3d
000002d0: 5649 5f3d 9893 89bd 284c 93bd c63c 47bd
000002e0: 8ca3 fcbd c924 443d bfd9 b8bd 1ca7 6cbd
000002f0: eead c4bd 0f04 293e ca9b 5abd 1c9b 13bd
00000300: 09b8 7d3d 6478 36bd cbae a9bd 47aa b33d
00000310: 8698 1a3d bc6d 03bd 97ed f7bd 43ad 07be
00000320: ab66 bf3d 0910 193d 88d3 04be 2c39 943e
00000330: c675 6d3e 04f4 013d 87c5 413e 88f3 373e
00000340: 9a96 1ebd be6b f33c 0428 87bd 77a2 953d
00000350: 3f5b 053e b4fa 06be 81af 2fbe 77d0 1cbe
00000360: 39c5 663e 236e 893d 8a81 083d aec7 cbbc
00000370: 733b 473e 8c98 183c 0273 28be ce18 8e3d
00000380: 0507 303d eec1 223d 4e6f 6b3c 7804 2ebe
00000390: 9bc6 b93c c64f 7dbd d994 d9bc 082e 59bd
000003a0: 5962 ff3d 0551 b13c 2e1b 06bd 3e16 babc
000003b0: c186 3a3c c796 97be 41df 26be 6fa0 b53d
000003c0: f15f 96bc de49 013e 64ef 7d3e 9f80 793e
000003d0: 327f c23d 5b26 2f3c 8baf 15bd 089e a7bd
000003e0: 3638 683d e4e0 3d3d 0910 6fbd 251f febd
000003f0: daee fd3d ab3f 223d e306 00be 21d1 863d

hidden_layers.1.bias f4 [50]
0.1070108 0.04095829 -0.06940837 -0.038310137 0.114512004 0.022994064 0.009085369 0.101556085
-0.121580735 0.069966435 -0.06274591 -0.031098003 0.06622704 0.020549972 -0.14238437 -0.056200676
-0.14981464 -0.082315415 -0.06127852 0.017168405 -0.10005591 0.16670693 0.06234451 0.15371802
-0.023356102 -0.13633354 0.0028511845 -0.07886246 -0.11166622 -0.006943647 -0.0056373808 -0.02817106
-0.03389714 -0.029780513 -0.23397677 0.0029254223 -0.088767916 -0.030679367 0.0058403346 -0.09852472
-0.088047765 0.018630685 -0.057357177 -0.08929801 -0.10683621 -0.07172445 0.034595735 -0.21802117
-0.054035213 0.24210781
00000000: 7a28 db3d e1c3 273d fa25 8ebd 17eb 1cbd
00000010: 4585 ea3d 0c5e bc3c cdda 143c a3fc cf3d
00000020: 52ff f8bd 904a 8f3d ed80 80bd 3dc1 febc
00000030: 0ba2 873d 6a58 a83c 35cd 11be ae32 66bd
00000040: 0269 19be fc94 a8bd 2fff 7abd c1a4 8c3c
00000050: 1dea ccbd 39b5 2a3e f55c 7f3d 4268 1d3e
00000060: 4c55 bfbc 059b 0bbe f0da 3a3b a482 a1bd
00000070: 42b1 e4bd 8887 e3bb c7b9 b8bb ffc6 e6bc
00000080: bad7 0abd 43f6 f3bc 9b97 6fbe 71b8 3f3b
00000090: f4cb b5bd 4c53 fbbc 4760 bf3b 54c7 c9bd
000000a0: 6352 b4bd 619f 983c 5cef 6abd e0e1 b6bd
000000b0: f1cc dabd 45e4 92bd 42b4 0d3d f140 5fbe
000000c0: 0754 5dbd 1ceb 773e

output_layer.weight f4 [4, 50]
-0.0023419054 0.0042012315 0.01638773 -0.039607447 0.04443604 9.171402e-05 0.011871642 -0.0033299697
-0.004769643 0.013914194 0.0010041858 -0.0036379616 0.0072253225 0.0022989358 0.002452113 -0.0031166226
-0.00094780145 -0.0034530964 0.00062297645 -0.00017373651 0.00164744 0.005183559 -0.012385976 -0.014918475
0.00092678686 -0.007307308 0.036063205 -0.011510659 -0.017617846 -0.0012266058 0.0032279973 0.0003718974
-0.018742172 0.0063861227 0.00053184666 -0.009748056 0.003581498 -0.03922731 0.004869413 -0.03405888
0.0016856365 -0.0064538536 -0.01898534 -0.006235368 -0.0014344631 0.029897654 -0.0029153398 0.001281477
0.00039475822 -0.0007749346 0.0033741463 -0.029548295 0.10804326 -0.0013994372 0.040114865 0.094771996
0.0916914 -0.39419737 0.0045140856 -0.08464474 -0.04837846 -0.044287328 -0.20813602 -0.03769002
0.13311526 -0.104903065 -0.070252925 0.013527942 -0.06094882 0.62203693 0.020203447 -0.0898622
-0.07968718 0.10774469 0.04628073 0.010835502 -0.16418 0.13036865 -0.044092808 -0.030548533
-0.056969974 0.06095266 -0.06681657 0.059199736 -0.30951262 0.014108509 -0.092171974 -0.016487941
-0.033501353 -0.07550927 -0.045047376 0.052853465 -0.16805005 -0.034503553 -0.015688159 0.060092233
-0.13199309 0.3331322 0.097852424 -0.5987981 0.015102312 -0.060519926 0.008796063 0.04212356
0.19652048 0.08648148 0.08099403 0.36599484 0.025500838 0.020980328 -0.07891422 -0.0419567
0.07731347 -0.019050175 -0.12867798 -0.044836752 -0.06014674 -0.07644287 -0.05800351 -0.6198838
-0.080752596 0.068266116 0.21391463 0.12072729 0.040369377 0.013075699 -0.012274451 -0.08091345
-0.027587662 -0.030004434 -0.075749844 -0.07167509 -0.057826016 0.024003854 0.30230913 0.036129467
-0.0880187 -0.14187212 -0.03569597 -0.005729629 0.030770227 0.049654715 -0.03650688 -0.11287398
-0.009971862 -0.09170709 -0.07391163 -0.33342957 0.0992402 0.59490323 -0.0007975335 0.008966966
0.021900335 -0.00024015333 0.052558437 0.0008749304 0.013152053 -0.010558585 -0.0019165576 -0.042123817
-0.00042803964 -0.0017036158 0.025928501 0.013673667 0.0053756493 -0.0011102809 -0.0030819173 -0.0034308634
0.009783149 0.000104497856 0.004882335 0.010795099 -0.010838037 -0.014740947 0.0006491597 -0.010144773
-0.019660808 0.0007437584 -0.015112746 -0.00041278143 0.002269595 -0.008243928 -0.01626542 0.0060818386
-0.0011178158 0.00082703243 -0.070124626 0.033611376 0.011308731 0.013350693 0.005863989 0.00038002455
-0.018650468 -0.017869733 -0.0046896595 -0.0017713666 -0.0018331313 -0.00045139465 0.0008741963 -0.0016388999
00000000: a77a 19bb 7caa 893b 903f 863c 6b3b 22bd
00000010: 9102 363d 9756 c038 4781 423c 9f3b 5abb
00000020: aa4a 9cbb 5cf8 633c e29e 833a de6a 6ebb
00000030: 66c2 ec3b bea9 163b a1b3 203b 4040 4cbb
00000040: e175 78ba 584d 62bb 3e4f 233a 0a2d 36b9
00000050: eaee d73a d8da a93b 8cee 4abc 9f6c 74bc
00000060: 9df3 723a 2472 efbb 03b7 133d 3497 3cbc
00000070: 4d53 90bc 10c6 a0ba cf8c 533b 39fb c239
00000080: 2f89 99bc ae42 d13b a06b 0b3a 4fb6 1fbc
00000090: 91b7 6a3b d1ac 20bd 998f 9f3b 5381 0bbd
000000a0: 93f0 dc3a d97a d3bb 2587 9bbc 0f52 ccbb
000000b0: 9804 bcba edeb f43c 490f 3fbb 3cf7 a73a
000000c0: 8df7 ce39 fb24 4bba c820 5d3b 440f f2bc
000000d0: c945 dd3d 526d b7ba 7c4f 243d d217 c23d
000000e0: b3c8 bb3d 3dd4 c9be e5ea 933b 395a adbd
000000f0: 7e28 46bd a166 35bd 9c21 55be da60 1abd
00000100: 5e4f 083e 6bd7 d6bd c4e0 8fbd 4da4 5d3c
00000110: 78a5 79bd d03d 1f3f b381 a53c ac09 b8bd
00000120: 0833 a3bd 3fa9 dc3d dd90 3d3d 6487 313c
00000130: cd1e 28be 5c7f 053e a99a 34bd eb40 fabc
00000140: 5959 69bd 7fa9 793d 20d7 88bd 6c7b 723d
00000150: 7078 9ebe 6027 673c a9c4 bcbd b811 87bc
00000160: b738 09bd 9ba4 9abd 9983 38bd e07c 583d
00000170: 5015 2cbe 9953 0dbd 7484 80bc 4623 763d
00000180: 3229 07be 4e90 aa3e da66 c83d d54a 19bf
00000190: b06f 773c bee3 77bd 5d1d 103c c189 2c3d
000001a0: aa3c 493e 341d b13d 33e0 a53d ad63 bb3e
000001b0: 22e7 d03c f0de ab3c c79d a1bd cada 2bbd
000001c0: 8656 9e3d 1d0f 9cbc 29c4 03be bea6 37bd
000001d0: 6e5c 76bd 148e 9cbd 1795 6dbd b4b0 1ebf
000001e0: 9e61 a5bd 1bcf 8b3d 700c 5b3e df3f f73d
000001f0: 5c5a 253d 753b 563c c71a 49bc f3b5 a5bd
00000200: 85ff e1bc dccb f5bc bc22 9bbd 64ca 92bd
00000210: f9da 6cbd bba3 c43c 43c8 9a3e 7efc 133d
00000220: 2643 b4bd ed46 11be f035 12bd 9dbf bbbb
00000230: d811 fc3c be62 4b3d 3d88 15bd 792a e7bd
00000240: 0561 23bc edd0 bbbd fb5e 97bd 48b7 aabe
00000250: 723e cb3d 944b 183f 9111 51ba 2eea 123c
00000260: 5568 b33c abd1 7bb9 8447 573d 965b 653a
00000270: b57b 573c eafd 2cbc 0035 fbba 068a 2cbd
00000280: 826a e0b9 dc4b dfba 0268 d43c 8407 603c
00000290: 3726 b03b d886 91ba fef9 49bb 56d8 60bb
000002a0: 8049 203c dc25 db38 fffb 9f3b eddd 303c
000002b0: 0692 31bc 0384 71bc 5f2c 2a3a 4336 26bc
000002c0: b40f a1bc c8f8 423a 739b 77bc 966a d8b9
000002d0: 7cbd 143b 8a11 07bc 0f3f 85bc 294a c73b
000002e0: ad83 92ba 35cd 583a 809d 8fbd 15ac 093d
000002f0: 4148 393c ddbc 5a3c b426 c03b 083e c739
00000300: dec8 98bc 8c63 92bc b7ab 99bb 332d e8ba
00000310: ae45 f0ba 2aa9 ecb9 522a 653a 5bd0 d6ba

output_layer.bias f4 [4]
-0.034290556 -0.09050615 -0.10601799 -0.051547688
00000000: 4174 0cbd 4a5b b9bd f61f d9bd ab23 53bd
